…
}
layer {
  name: "data"
  type: "ImageData"
  top: "data"
  top: "label"
  include {
    phase: TRAIN
  }
  transform_param {
    mirror: true
    crop_size: 227
    mean_file: "/home/iis/adsc/imagenet_mean.binaryproto"
    rotation_angle_interval: 30
    contrast_adjustment: true
    smooth_filtering: true
    jpeg_compression: true
    display: true
  }
  image_data_param {
    source: "/home/iis/hashing/caffe-ssdh/examples/SSDH-VGG-Landmark-1024/landmark_train.txt"
    batch_size: 32
    shuffle: true
    new_height: 256
    new_width: 256
  }
}
layer {
  name: "conv1"
  type: "Convolution"
  bottom: "data"
  top: "conv1"
  param {
    lr_mult: 1
    decay_mult: 1
  }
  param {
    lr_mult: 2
    decay_mult: 0
  }
  convolution_param {
    num_output: 96
    kernel_size: 11
    stride: 4
    weight_filler {
      type: "gaussian"
      std: 0.01
    }
    bias_filler {
      type: "constant"
      value: 0
    }
  }
}
layer {
  name: "relu1"
  type: "ReLU"
  bottom: "conv1"
  top: "conv1"
}
layer {
  name: "pool1"
  type: "Pooling"
  bottom: "conv1"
  top: "pool1"
  pooling_param {
    pool: MAX
    kernel_size: 3
    stride: 2
  }
}
layer {
  name: "norm1"
  type: "LRN"
  bottom: "pool1"
  top: "norm1"
  lrn_param {
    local_size: 5
    alpha: 0.0001
    beta: 0.75
  }
}
layer {
  name: "conv2"
  type: "Convolution"
  bottom: "norm1"
  top: "conv2"
  param {
    lr_mult: 1
    decay_mult: 1
  }
  param {
    lr_mult: 2
    decay_mult: 0
  }
  convolution_param {
    num_output: 256
    pad: 2
    kernel_size: 5
    group: 2
    weight_filler {
      type: "gaussian"
      std: 0.01
    }
    bias_filler {
      type: "constant"
      value: 1
    }
  }
}
layer {
  name: "relu2"
  type: "ReLU"
  bottom: "conv2"
  top: "conv2"
}
layer {
  name: "pool2"
  type: "Pooling"
  bottom: "conv2"
  top: "pool2"
  pooling_param {
    pool: MAX
    kernel_size: 3
    stride: 2
  }
}
layer {
  name: "norm2"
  type: "LRN"
  bottom: "pool2"
  top: "norm2"
  lrn_param {
    local_size: 5
    alpha: 0.0001
    beta: 0.75
  }
}
layer {
  name: "conv3"
  type: "Convolution"
  bottom: "norm2"
  top: "conv3"
  param {
    lr_mult: 1
    decay_mult: 1
  }
  param {
    lr_mult: 2
    decay_mult: 0
  }
  convolution_param {
    num_output: 384
    pad: 1
    kernel_size: 3
    weight_filler {
      type: "gaussian"
      std: 0.01
    }
    bias_filler {
      type: "constant"
      value: 0
    }
  }
}
layer {
  name: "relu3"
  type: "ReLU"
  bottom: "conv3"
  top: "conv3"
}
layer {
  name: "conv4"
  type: "Convolution"
  bottom: "conv3"
  top: "conv4"
  param {
    lr_mult: 1
    decay_mult: 1
  }
  param {
    lr_mult: 2
    decay_mult: 0
  }
  convolution_param {
    num_output: 384
    pad: 1
    kernel_size: 3
    group: 2
    weight_filler {
      type: "gaussian"
      std: 0.01
    }
    bias_filler {
      type: "constant"
      value: 1
    }
  }
}
layer {
  name: "relu4"
  type: "ReLU"
  bottom: "conv4"
  top: "conv4"
}
layer {
  name: "conv5"
  type: "Convolution"
  bottom: "conv4"
  top: "conv5"
  param {
    lr_mult: 1
    decay_mult: 1
  }
  param {
    lr_mult: 2
    decay_mult: 0
  }
  convolution_param {
    num_output: 256
    pad: 1
    kernel_size: 3
    group: 2
    weight_filler {
      type: "gaussian"
      std: 0.01
    }
    bias_filler {
      type: "constant"
      value: 1
    }
  }
}
layer {
  name: "relu5"
  type: "ReLU"
  bottom: "conv5"
  top: "conv5"
}
layer {
  name: "pool5"
  type: "Pooling"
  bottom: "conv5"
  top: "pool5"
  pooling_param {
    pool: MAX
    kernel_size: 3
    stride: 2
  }
}
layer {
  name: "fc6"
  type: "InnerProduct"
  bottom: "pool5"
  top: "fc6"
  param {
    lr_mult: 1
    decay_mult: 1
  }
  param {
    lr_mult: 2
    decay_mult: 0
  }
  inner_product_param {
    num_output: 4096
    weight_filler {
      type: "gaussian"
      std: 0.005
    }
    bias_filler {
      type: "constant"
      value: 1
    }
  }
}
layer {
  name: "relu6"
  type: "ReLU"
  bottom: "fc6"
  top: "fc6"
}
layer {
  name: "drop6"
  type: "Dropout"
  bottom: "fc6"
  top: "fc6"
  dropout_param {
    dropout_ratio: 0.5
  }
}
layer {
  name: "fc7"
  type: "InnerProduct"
  bottom: "fc6"
  top: "fc7"
  param {
    lr_mult: 1
    decay_mult: 1
  }
  param {
    lr_mult: 2
    decay_mult: 0
  }
  inner_product_param {
    num_output: 4096
    weight_filler {
      type: "gaussian"
      std: 0.005
    }
    bias_filler {
      type: "constant"
      value: 1
    }
  }
}
layer {
  name: "relu7"
  type: "ReLU"
  bottom: "fc7"
  top: "fc7"
}
layer {
  name: "drop7"
  type: "Dropout"
  bottom: "fc7"
  top: "fc7"
  dropout_param {
    dropout_ratio: 0.5
  }
}
layer {
  name: "latent_layer"
  type: "InnerProduct"
  bottom: "fc7"
  top: "latent_layer"
  param {
    lr_mult: 1
    decay_mult: 1
  }
  param {
    lr_mult: 2
    decay_mult: 0
  }
  inner_product_param {
    num_output: 48
    weight_filler {
      type: "gaussian"
      std: 0.005
    }
    bias_filler {
      type: "constant"
      value: 1
    }
  }
}
layer {
  name: "encode_neuron"
  type: "Sigmoid"
  bottom: "latent_layer"
  top: "encode_neuron"
}
layer {
  name: "loss_beta"
  type: "K1_EuclideanLoss"
  bottom: "encode_neuron"
  bottom: "encode_neuron"
  top: "loss: forcing-binary"
  loss_weight: 1
}
layer {
  name: "loss_gamma"
  type: "K2_EuclideanLoss"
  bottom: "encode_neuron"
  bottom: "encode_neuron"
  top: "loss: 50%-fire-rate"
  loss_weight: 1
}
layer {
  name: "fc8_classification"
  type: "InnerProduct"
  bottom: "encode_neuron"
  top: "fc8_classification"
  param {
    lr_mult: 10
    decay_mult: 1
  }
  param {
    lr_mult: 20
    decay_mult: 0
  }
  inner_product_param {
    num_output: 10
    weight_filler {
      type: "gaussian"
      std: 0.01
    }
    bias_filler {
      type: "constant"
      value: 0
    }
  }
}
layer {
  name: "loss_alpha"
  type: "SoftmaxWithLoss"
  bottom: "fc8_classification"
  bottom: "label"
  top: "loss: classfication-error"
  loss_weight: 1
}
I0317 12:57:42.643378 28747 layer_factory.hpp:76] Creating layer data
I0317 12:57:42.643427 28747 net.cpp:110] Creating Layer data
I0317 12:57:42.643442 28747 net.cpp:433] data -> data
I0317 12:57:42.643479 28747 net.cpp:433] data -> label
I0317 12:57:42.643501 28747 data_transformer.cpp:29] Loading mean file from: /home/iis/adsc/imagenet_mean.binaryproto
I0317 12:57:42.691609 28747 image_data_layer.cpp:36] Opening file /home/iis/hashing/caffe-ssdh/examples/SSDH-VGG-Landmark-1024/landmark_train.txt
I0317 12:57:42.769206 28747 image_data_layer.cpp:46] Shuffling data
I0317 12:57:42.796319 28747 image_data_layer.cpp:51] A total of 214141 images.
I0317 12:57:42.800331 28747 image_data_layer.cpp:78] output data size: 32,3,227,227
I0317 12:57:42.835144 28747 net.cpp:155] Setting up data
I0317 12:57:42.835178 28747 net.cpp:163] Top shape: 32 3 227 227 (4946784)
I0317 12:57:42.835192 28747 net.cpp:163] Top shape: 32 (32)
I0317 12:57:42.835206 28747 layer_factory.hpp:76] Creating layer conv1
I0317 12:57:42.835230 28747 net.cpp:110] Creating Layer conv1
I0317 12:57:42.835244 28747 net.cpp:477] conv1 <- data
I0317 12:57:42.835268 28747 net.cpp:433] conv1 -> conv1
I0317 12:57:42.836849 28747 net.cpp:155] Setting up conv1
I0317 12:57:42.836866 28747 net.cpp:163] Top shape: 32 96 55 55 (9292800)
I0317 12:57:42.836894 28747 layer_factory.hpp:76] Creating layer relu1
I0317 12:57:42.836910 28747 net.cpp:110] Creating Layer relu1
I0317 12:57:42.836921 28747 net.cpp:477] relu1 <- conv1
I0317 12:57:42.836948 28747 net.cpp:419] relu1 -> conv1 (in-place)
I0317 12:57:42.836966 28747 net.cpp:155] Setting up relu1
I0317 12:57:42.836979 28747 net.cpp:163] Top shape: 32 96 55 55 (9292800)
I0317 12:57:42.836992 28747 layer_factory.hpp:76] Creating layer pool1
I0317 12:57:42.837005 28747 net.cpp:110] Creating Layer pool1
I0317 12:57:42.837015 28747 net.cpp:477] pool1 <- conv1
I0317 12:57:42.837028 28747 net.cpp:433] pool1 -> pool1
I0317 12:57:42.837057 28747 net.cpp:155] Setting up pool1
I0317 12:57:42.837069 28747 net.cpp:163] Top shape: 32 96 27 27 (2239488)
I0317 12:57:42.837079 28747 layer_factory.hpp:76] Creating layer norm1
I0317 12:57:42.837092 28747 net.cpp:110] Creating Layer norm1
I0317 12:57:42.837103 28747 net.cpp:477] norm1 <- pool1
I0317 12:57:42.837116 28747 net.cpp:433] norm1 -> norm1
I0317 12:57:42.837136 28747 net.cpp:155] Setting up norm1
I0317 12:57:42.837147 28747 net.cpp:163] Top shape: 32 96 27 27 (2239488)
I0317 12:57:42.837157 28747 layer_factory.hpp:76] Creating layer conv2
I0317 12:57:42.837169 28747 net.cpp:110] Creating Layer conv2
I0317 12:57:42.837179 28747 net.cpp:477] conv2 <- norm1
I0317 12:57:42.837191 28747 net.cpp:433] conv2 -> conv2
I0317 12:57:42.845336 28747 net.cpp:155] Setting up conv2
I0317 12:57:42.845363 28747 net.cpp:163] Top shape: 32 256 27 27 (5971968)
I0317 12:57:42.845386 28747 layer_factory.hpp:76] Creating layer relu2
I0317 12:57:42.845409 28747 net.cpp:110] Creating Layer relu2
I0317 12:57:42.845420 28747 net.cpp:477] relu2 <- conv2
I0317 12:57:42.845438 28747 net.cpp:419] relu2 -> conv2 (in-place)
I0317 12:57:42.845456 28747 net.cpp:155] Setting up relu2
I0317 12:57:42.845469 28747 net.cpp:163] Top shape: 32 256 27 27 (5971968)
I0317 12:57:42.845480 28747 layer_factory.hpp:76] Creating layer pool2
I0317 12:57:42.845494 28747 net.cpp:110] Creating Layer pool2
I0317 12:57:42.845504 28747 net.cpp:477] pool2 <- conv2
I0317 12:57:42.845516 28747 net.cpp:433] pool2 -> pool2
I0317 12:57:42.845535 28747 net.cpp:155] Setting up pool2
I0317 12:57:42.845547 28747 net.cpp:163] Top shape: 32 256 13 13 (1384448)
I0317 12:57:42.845558 28747 layer_factory.hpp:76] Creating layer norm2
I0317 12:57:42.845573 28747 net.cpp:110] Creating Layer norm2
I0317 12:57:42.845582 28747 net.cpp:477] norm2 <- pool2
I0317 12:57:42.845593 28747 net.cpp:433] norm2 -> norm2
I0317 12:57:42.845609 28747 net.cpp:155] Setting up norm2
I0317 12:57:42.845620 28747 net.cpp:163] Top shape: 32 256 13 13 (1384448)
I0317 12:57:42.845629 28747 layer_factory.hpp:76] Creating layer conv3
I0317 12:57:42.845645 28747 net.cpp:110] Creating Layer conv3
I0317 12:57:42.845655 28747 net.cpp:477] conv3 <- norm2
I0317 12:57:42.845667 28747 net.cpp:433] conv3 -> conv3
I0317 12:57:42.868005 28747 net.cpp:155] Setting up conv3
I0317 12:57:42.868042 28747 net.cpp:163] Top shape: 32 384 13 13 (2076672)
I0317 12:57:42.868069 28747 layer_factory.hpp:76] Creating layer relu3
I0317 12:57:42.868093 28747 net.cpp:110] Creating Layer relu3
I0317 12:57:42.868106 28747 net.cpp:477] relu3 <- conv3
I0317 12:57:42.868124 28747 net.cpp:419] relu3 -> conv3 (in-place)
I0317 12:57:42.868140 28747 net.cpp:155] Setting up relu3
I0317 12:57:42.868155 28747 net.cpp:163] Top shape: 32 384 13 13 (2076672)
I0317 12:57:42.868166 28747 layer_factory.hpp:76] Creating layer conv4
I0317 12:57:42.868185 28747 net.cpp:110] Creating Layer conv4
I0317 12:57:42.868193 28747 net.cpp:477] conv4 <- conv3
I0317 12:57:42.868206 28747 net.cpp:433] conv4 -> conv4

(process:28747): GConf-WARNING **: Client failed to connect to the D-BUS daemon:
Did not receive a reply. Possible causes include: the remote application did not send a reply, the message bus security policy blocked the reply, the reply timeout expired, or the network connection was broken.
I0317 12:57:42.886548 28747 net.cpp:155] Setting up conv4
I0317 12:57:42.886582 28747 net.cpp:163] Top shape: 32 384 13 13 (2076672)
I0317 12:57:42.886602 28747 layer_factory.hpp:76] Creating layer relu4
I0317 12:57:42.886620 28747 net.cpp:110] Creating Layer relu4
I0317 12:57:42.886636 28747 net.cpp:477] relu4 <- conv4
I0317 12:57:42.886648 28747 net.cpp:419] relu4 -> conv4 (in-place)
I0317 12:57:42.886667 28747 net.cpp:155] Setting up relu4
I0317 12:57:42.886680 28747 net.cpp:163] Top shape: 32 384 13 13 (2076672)
I0317 12:57:42.886692 28747 layer_factory.hpp:76] Creating layer conv5
I0317 12:57:42.886721 28747 net.cpp:110] Creating Layer conv5
I0317 12:57:42.886734 28747 net.cpp:477] conv5 <- conv4
I0317 12:57:42.886746 28747 net.cpp:433] conv5 -> conv5
I0317 12:57:42.898067 28747 net.cpp:155] Setting up conv5
I0317 12:57:42.898103 28747 net.cpp:163] Top shape: 32 256 13 13 (1384448)
I0317 12:57:42.898131 28747 layer_factory.hpp:76] Creating layer relu5
I0317 12:57:42.898154 28747 net.cpp:110] Creating Layer relu5
I0317 12:57:42.898166 28747 net.cpp:477] relu5 <- conv5
I0317 12:57:42.898180 28747 net.cpp:419] relu5 -> conv5 (in-place)
I0317 12:57:42.898200 28747 net.cpp:155] Setting up relu5
I0317 12:57:42.898211 28747 net.cpp:163] Top shape: 32 256 13 13 (1384448)
I0317 12:57:42.898221 28747 layer_factory.hpp:76] Creating layer pool5
I0317 12:57:42.898233 28747 net.cpp:110] Creating Layer pool5
I0317 12:57:42.898244 28747 net.cpp:477] pool5 <- conv5
I0317 12:57:42.898257 28747 net.cpp:433] pool5 -> pool5
I0317 12:57:42.898277 28747 net.cpp:155] Setting up pool5
I0317 12:57:42.898288 28747 net.cpp:163] Top shape: 32 256 6 6 (294912)
I0317 12:57:42.898299 28747 layer_factory.hpp:76] Creating layer fc6
I0317 12:57:42.898320 28747 net.cpp:110] Creating Layer fc6
I0317 12:57:42.898329 28747 net.cpp:477] fc6 <- pool5
I0317 12:57:42.898342 28747 net.cpp:433] fc6 -> fc6

(caffe:28747): GConf-WARNING **: Client failed to connect to the D-BUS daemon:
Did not receive a reply. Possible causes include: the remote application did not send a reply, the message bus security policy blocked the reply, the reply timeout expired, or the network connection was broken.
…
I0317 12:57:44.418562 28759 data_transformer.cpp:411]   QF: 99
I0317 12:57:44.418566 28759 data_transformer.cpp:413] * parameter for cropping: 
I0317 12:57:44.418570 28759 data_transformer.cpp:414]   w: 18, h: 6
I0317 12:57:44.418572 28759 data_transformer.cpp:415]   roi_width: 227, roi_height: 227
I0317 12:57:44.418576 28759 data_transformer.cpp:416] * parameter for rotation: 
I0317 12:57:44.418579 28759 data_transformer.cpp:417]   angle_interval: 30
I0317 12:57:44.418584 28759 data_transformer.cpp:418]   angle: 180
I0317 12:57:44.422155 28747 net.cpp:155] Setting up fc7
I0317 12:57:44.422178 28747 net.cpp:163] Top shape: 32 4096 (131072)
I0317 12:57:44.422199 28747 layer_factory.hpp:76] Creating layer relu7
I0317 12:57:44.422216 28747 net.cpp:110] Creating Layer relu7
I0317 12:57:44.422227 28747 net.cpp:477] relu7 <- fc7
I0317 12:57:44.422241 28747 net.cpp:419] relu7 -> fc7 (in-place)
I0317 12:57:44.422257 28747 net.cpp:155] Setting up relu7
I0317 12:57:44.422271 28747 net.cpp:163] Top shape: 32 4096 (131072)
I0317 12:57:44.422279 28747 layer_factory.hpp:76] Creating layer drop7
I0317 12:57:44.422291 28747 net.cpp:110] Creating Layer drop7
I0317 12:57:44.422299 28747 net.cpp:477] drop7 <- fc7
I0317 12:57:44.422309 28747 net.cpp:419] drop7 -> fc7 (in-place)
I0317 12:57:44.422323 28747 net.cpp:155] Setting up drop7
I0317 12:57:44.422336 28747 net.cpp:163] Top shape: 32 4096 (131072)
I0317 12:57:44.422345 28747 layer_factory.hpp:76] Creating layer latent_layer
I0317 12:57:44.422359 28747 net.cpp:110] Creating Layer latent_layer
I0317 12:57:44.422369 28747 net.cpp:477] latent_layer <- fc7
I0317 12:57:44.422381 28747 net.cpp:433] latent_layer -> latent_layer
I0317 12:57:44.427525 28747 net.cpp:155] Setting up latent_layer
I0317 12:57:44.427542 28747 net.cpp:163] Top shape: 32 48 (1536)
I0317 12:57:44.427556 28747 layer_factory.hpp:76] Creating layer encode_neuron
I0317 12:57:44.427569 28747 net.cpp:110] Creating Layer encode_neuron
I0317 12:57:44.427582 28747 net.cpp:477] encode_neuron <- latent_layer
I0317 12:57:44.427592 28747 net.cpp:433] encode_neuron -> encode_neuron
I0317 12:57:44.427608 28747 net.cpp:155] Setting up encode_neuron
I0317 12:57:44.427620 28747 net.cpp:163] Top shape: 32 48 (1536)
I0317 12:57:44.427631 28747 layer_factory.hpp:76] Creating layer encode_neuron_encode_neuron_0_split
I0317 12:57:44.427644 28747 net.cpp:110] Creating Layer encode_neuron_encode_neuron_0_split
I0317 12:57:44.427654 28747 net.cpp:477] encode_neuron_encode_neuron_0_split <- encode_neuron
I0317 12:57:44.427682 28747 net.cpp:433] encode_neuron_encode_neuron_0_split -> encode_neuron_encode_neuron_0_split_0
I0317 12:57:44.427702 28747 net.cpp:433] encode_neuron_encode_neuron_0_split -> encode_neuron_encode_neuron_0_split_1
I0317 12:57:44.427716 28747 net.cpp:433] encode_neuron_encode_neuron_0_split -> encode_neuron_encode_neuron_0_split_2
I0317 12:57:44.427731 28747 net.cpp:433] encode_neuron_encode_neuron_0_split -> encode_neuron_encode_neuron_0_split_3
I0317 12:57:44.427745 28747 net.cpp:433] encode_neuron_encode_neuron_0_split -> encode_neuron_encode_neuron_0_split_4
I0317 12:57:44.427762 28747 net.cpp:155] Setting up encode_neuron_encode_neuron_0_split
I0317 12:57:44.427773 28747 net.cpp:163] Top shape: 32 48 (1536)
I0317 12:57:44.427785 28747 net.cpp:163] Top shape: 32 48 (1536)
I0317 12:57:44.427796 28747 net.cpp:163] Top shape: 32 48 (1536)
I0317 12:57:44.427809 28747 net.cpp:163] Top shape: 32 48 (1536)
I0317 12:57:44.427819 28747 net.cpp:163] Top shape: 32 48 (1536)
I0317 12:57:44.427829 28747 layer_factory.hpp:76] Creating layer loss_beta
I0317 12:57:44.427850 28747 net.cpp:110] Creating Layer loss_beta
I0317 12:57:44.427860 28747 net.cpp:477] loss_beta <- encode_neuron_encode_neuron_0_split_0
I0317 12:57:44.427868 28747 net.cpp:477] loss_beta <- encode_neuron_encode_neuron_0_split_1
I0317 12:57:44.427881 28747 net.cpp:433] loss_beta -> loss: forcing-binary
…
