…
}
layer {
  name: "data"
  type: "ImageData"
  top: "data"
  top: "label"
  include {
    phase: TRAIN
  }
  transform_param {
    mirror: true
    crop_size: 227
    mean_file: "/home/iis/adsc/imagenet_mean.binaryproto"
    rotation_angle_interval: 30
    contrast_adjustment: true
    smooth_filtering: true
    jpeg_compression: true
    display: true
  }
  image_data_param {
    source: "/home/iis/hashing/caffe-ssdh/examples/SSDH-VGG-Landmark-1024/landmark_train.txt"
    batch_size: 32
    shuffle: true
    new_height: 256
    new_width: 256
  }
}
layer {
  name: "conv1"
  type: "Convolution"
  bottom: "data"
  top: "conv1"
  param {
    lr_mult: 1
    decay_mult: 1
  }
  param {
    lr_mult: 2
    decay_mult: 0
  }
  convolution_param {
    num_output: 96
    kernel_size: 11
    stride: 4
    weight_filler {
      type: "gaussian"
      std: 0.01
    }
    bias_filler {
      type: "constant"
      value: 0
    }
  }
}
layer {
  name: "relu1"
  type: "ReLU"
  bottom: "conv1"
  top: "conv1"
}
layer {
  name: "pool1"
  type: "Pooling"
  bottom: "conv1"
  top: "pool1"
  pooling_param {
    pool: MAX
    kernel_size: 3
    stride: 2
  }
}
layer {
  name: "norm1"
  type: "LRN"
  bottom: "pool1"
  top: "norm1"
  lrn_param {
    local_size: 5
    alpha: 0.0001
    beta: 0.75
  }
}
layer {
  name: "conv2"
  type: "Convolution"
  bottom: "norm1"
  top: "conv2"
  param {
    lr_mult: 1
    decay_mult: 1
  }
  param {
    lr_mult: 2
    decay_mult: 0
  }
  convolution_param {
    num_output: 256
    pad: 2
    kernel_size: 5
    group: 2
    weight_filler {
      type: "gaussian"
      std: 0.01
    }
    bias_filler {
      type: "constant"
      value: 1
    }
  }
}
layer {
  name: "relu2"
  type: "ReLU"
  bottom: "conv2"
  top: "conv2"
}
layer {
  name: "pool2"
  type: "Pooling"
  bottom: "conv2"
  top: "pool2"
  pooling_param {
    pool: MAX
    kernel_size: 3
    stride: 2
  }
}
layer {
  name: "norm2"
  type: "LRN"
  bottom: "pool2"
  top: "norm2"
  lrn_param {
    local_size: 5
    alpha: 0.0001
    beta: 0.75
  }
}
layer {
  name: "conv3"
  type: "Convolution"
  bottom: "norm2"
  top: "conv3"
  param {
    lr_mult: 1
    decay_mult: 1
  }
  param {
    lr_mult: 2
    decay_mult: 0
  }
  convolution_param {
    num_output: 384
    pad: 1
    kernel_size: 3
    weight_filler {
      type: "gaussian"
      std: 0.01
    }
    bias_filler {
      type: "constant"
      value: 0
    }
  }
}
layer {
  name: "relu3"
  type: "ReLU"
  bottom: "conv3"
  top: "conv3"
}
layer {
  name: "conv4"
  type: "Convolution"
  bottom: "conv3"
  top: "conv4"
  param {
    lr_mult: 1
    decay_mult: 1
  }
  param {
    lr_mult: 2
    decay_mult: 0
  }
  convolution_param {
    num_output: 384
    pad: 1
    kernel_size: 3
    group: 2
    weight_filler {
      type: "gaussian"
      std: 0.01
    }
    bias_filler {
      type: "constant"
      value: 1
    }
  }
}
layer {
  name: "relu4"
  type: "ReLU"
  bottom: "conv4"
  top: "conv4"
}
layer {
  name: "conv5"
  type: "Convolution"
  bottom: "conv4"
  top: "conv5"
  param {
    lr_mult: 1
    decay_mult: 1
  }
  param {
    lr_mult: 2
    decay_mult: 0
  }
  convolution_param {
    num_output: 256
    pad: 1
    kernel_size: 3
    group: 2
    weight_filler {
      type: "gaussian"
      std: 0.01
    }
    bias_filler {
      type: "constant"
      value: 1
    }
  }
}
layer {
  name: "relu5"
  type: "ReLU"
  bottom: "conv5"
  top: "conv5"
}
layer {
  name: "pool5"
  type: "Pooling"
  bottom: "conv5"
  top: "pool5"
  pooling_param {
    pool: MAX
    kernel_size: 3
    stride: 2
  }
}
layer {
  name: "fc6"
  type: "InnerProduct"
  bottom: "pool5"
  top: "fc6"
  param {
    lr_mult: 1
    decay_mult: 1
  }
  param {
    lr_mult: 2
    decay_mult: 0
  }
  inner_product_param {
    num_output: 4096
    weight_filler {
      type: "gaussian"
      std: 0.005
    }
    bias_filler {
      type: "constant"
      value: 1
    }
  }
}
layer {
  name: "relu6"
  type: "ReLU"
  bottom: "fc6"
  top: "fc6"
}
layer {
  name: "drop6"
  type: "Dropout"
  bottom: "fc6"
  top: "fc6"
  dropout_param {
    dropout_ratio: 0.5
  }
}
layer {
  name: "fc7"
  type: "InnerProduct"
  bottom: "fc6"
  top: "fc7"
  param {
    lr_mult: 1
    decay_mult: 1
  }
  param {
    lr_mult: 2
    decay_mult: 0
  }
  inner_product_param {
    num_output: 4096
    weight_filler {
      type: "gaussian"
      std: 0.005
    }
    bias_filler {
      type: "constant"
      value: 1
    }
  }
}
layer {
  name: "relu7"
  type: "ReLU"
  bottom: "fc7"
  top: "fc7"
}
layer {
  name: "drop7"
  type: "Dropout"
  bottom: "fc7"
  top: "fc7"
  dropout_param {
    dropout_ratio: 0.5
  }
}
layer {
  name: "latent_layer"
  type: "InnerProduct"
  bottom: "fc7"
  top: "latent_layer"
  param {
    lr_mult: 1
    decay_mult: 1
  }
  param {
    lr_mult: 2
    decay_mult: 0
  }
  inner_product_param {
    num_output: 48
    weight_filler {
      type: "gaussian"
      std: 0.005
    }
    bias_filler {
      type: "constant"
      value: 1
    }
  }
}
layer {
  name: "encode_neuron"
  type: "Sigmoid"
  bottom: "latent_layer"
  top: "encode_neuron"
}
layer {
  name: "loss_beta"
  type: "K1_EuclideanLoss"
  bottom: "encode_neuron"
  bottom: "encode_neuron"
  top: "loss: forcing-binary"
  loss_weight: 1
}
layer {
  name: "loss_gamma"
  type: "K2_EuclideanLoss"
  bottom: "encode_neuron"
  bottom: "encode_neuron"
  top: "loss: 50%-fire-rate"
  loss_weight: 1
}
layer {
  name: "fc8_classification"
  type: "InnerProduct"
  bottom: "encode_neuron"
  top: "fc8_classification"
  param {
    lr_mult: 10
    decay_mult: 1
  }
  param {
    lr_mult: 20
    decay_mult: 0
  }
  inner_product_param {
    num_output: 10
    weight_filler {
      type: "gaussian"
      std: 0.01
    }
    bias_filler {
      type: "constant"
      value: 0
    }
  }
}
layer {
  name: "loss_alpha"
  type: "SoftmaxWithLoss"
  bottom: "fc8_classification"
  bottom: "label"
  top: "loss: classfication-error"
  loss_weight: 1
}
I0316 23:04:08.400252 18906 layer_factory.hpp:76] Creating layer data
I0316 23:04:08.400285 18906 net.cpp:110] Creating Layer data
I0316 23:04:08.400295 18906 net.cpp:433] data -> data
I0316 23:04:08.400317 18906 net.cpp:433] data -> label
I0316 23:04:08.400336 18906 data_transformer.cpp:29] Loading mean file from: /home/iis/adsc/imagenet_mean.binaryproto
I0316 23:04:08.444247 18906 image_data_layer.cpp:36] Opening file /home/iis/hashing/caffe-ssdh/examples/SSDH-VGG-Landmark-1024/landmark_train.txt
I0316 23:04:08.523547 18906 image_data_layer.cpp:46] Shuffling data
I0316 23:04:08.555009 18906 image_data_layer.cpp:51] A total of 214141 images.
I0316 23:04:08.558284 18906 image_data_layer.cpp:78] output data size: 32,3,227,227
I0316 23:04:08.594512 18906 net.cpp:155] Setting up data
I0316 23:04:08.594558 18906 net.cpp:163] Top shape: 32 3 227 227 (4946784)
I0316 23:04:08.594566 18906 net.cpp:163] Top shape: 32 (32)
I0316 23:04:08.594576 18906 layer_factory.hpp:76] Creating layer conv1
I0316 23:04:08.594601 18906 net.cpp:110] Creating Layer conv1
I0316 23:04:08.594612 18906 net.cpp:477] conv1 <- data
I0316 23:04:08.594635 18906 net.cpp:433] conv1 -> conv1
I0316 23:04:08.597821 18906 net.cpp:155] Setting up conv1
I0316 23:04:08.597842 18906 net.cpp:163] Top shape: 32 96 55 55 (9292800)
I0316 23:04:08.597869 18906 layer_factory.hpp:76] Creating layer relu1
I0316 23:04:08.597885 18906 net.cpp:110] Creating Layer relu1
I0316 23:04:08.597898 18906 net.cpp:477] relu1 <- conv1
I0316 23:04:08.597939 18906 net.cpp:419] relu1 -> conv1 (in-place)
I0316 23:04:08.597955 18906 net.cpp:155] Setting up relu1
I0316 23:04:08.597968 18906 net.cpp:163] Top shape: 32 96 55 55 (9292800)
I0316 23:04:08.597980 18906 layer_factory.hpp:76] Creating layer pool1
I0316 23:04:08.597995 18906 net.cpp:110] Creating Layer pool1
I0316 23:04:08.598006 18906 net.cpp:477] pool1 <- conv1
I0316 23:04:08.598021 18906 net.cpp:433] pool1 -> pool1
I0316 23:04:08.598055 18906 net.cpp:155] Setting up pool1
I0316 23:04:08.598068 18906 net.cpp:163] Top shape: 32 96 27 27 (2239488)
I0316 23:04:08.598090 18906 layer_factory.hpp:76] Creating layer norm1
I0316 23:04:08.598112 18906 net.cpp:110] Creating Layer norm1
I0316 23:04:08.598121 18906 net.cpp:477] norm1 <- pool1
I0316 23:04:08.598134 18906 net.cpp:433] norm1 -> norm1
I0316 23:04:08.598153 18906 net.cpp:155] Setting up norm1
I0316 23:04:08.598165 18906 net.cpp:163] Top shape: 32 96 27 27 (2239488)
I0316 23:04:08.598191 18906 layer_factory.hpp:76] Creating layer conv2
I0316 23:04:08.598223 18906 net.cpp:110] Creating Layer conv2
I0316 23:04:08.598237 18906 net.cpp:477] conv2 <- norm1
I0316 23:04:08.598251 18906 net.cpp:433] conv2 -> conv2
I0316 23:04:08.606844 18906 net.cpp:155] Setting up conv2
I0316 23:04:08.606881 18906 net.cpp:163] Top shape: 32 256 27 27 (5971968)
I0316 23:04:08.606905 18906 layer_factory.hpp:76] Creating layer relu2
I0316 23:04:08.606940 18906 net.cpp:110] Creating Layer relu2
I0316 23:04:08.606950 18906 net.cpp:477] relu2 <- conv2
I0316 23:04:08.606963 18906 net.cpp:419] relu2 -> conv2 (in-place)
I0316 23:04:08.606981 18906 net.cpp:155] Setting up relu2
I0316 23:04:08.606994 18906 net.cpp:163] Top shape: 32 256 27 27 (5971968)
I0316 23:04:08.607005 18906 layer_factory.hpp:76] Creating layer pool2
I0316 23:04:08.607020 18906 net.cpp:110] Creating Layer pool2
I0316 23:04:08.607029 18906 net.cpp:477] pool2 <- conv2
I0316 23:04:08.607043 18906 net.cpp:433] pool2 -> pool2
I0316 23:04:08.607062 18906 net.cpp:155] Setting up pool2
I0316 23:04:08.607074 18906 net.cpp:163] Top shape: 32 256 13 13 (1384448)
I0316 23:04:08.607085 18906 layer_factory.hpp:76] Creating layer norm2
I0316 23:04:08.607103 18906 net.cpp:110] Creating Layer norm2
I0316 23:04:08.607112 18906 net.cpp:477] norm2 <- pool2
I0316 23:04:08.607136 18906 net.cpp:433] norm2 -> norm2
I0316 23:04:08.607151 18906 net.cpp:155] Setting up norm2
I0316 23:04:08.607164 18906 net.cpp:163] Top shape: 32 256 13 13 (1384448)
I0316 23:04:08.607175 18906 layer_factory.hpp:76] Creating layer conv3
I0316 23:04:08.607192 18906 net.cpp:110] Creating Layer conv3
I0316 23:04:08.607202 18906 net.cpp:477] conv3 <- norm2
I0316 23:04:08.607215 18906 net.cpp:433] conv3 -> conv3
I0316 23:04:08.633561 18906 net.cpp:155] Setting up conv3
I0316 23:04:08.633600 18906 net.cpp:163] Top shape: 32 384 13 13 (2076672)
I0316 23:04:08.633625 18906 layer_factory.hpp:76] Creating layer relu3
I0316 23:04:08.633646 18906 net.cpp:110] Creating Layer relu3
I0316 23:04:08.633656 18906 net.cpp:477] relu3 <- conv3
I0316 23:04:08.633671 18906 net.cpp:419] relu3 -> conv3 (in-place)
I0316 23:04:08.633683 18906 net.cpp:155] Setting up relu3
I0316 23:04:08.633690 18906 net.cpp:163] Top shape: 32 384 13 13 (2076672)
I0316 23:04:08.633697 18906 layer_factory.hpp:76] Creating layer conv4
I0316 23:04:08.633707 18906 net.cpp:110] Creating Layer conv4
I0316 23:04:08.633711 18906 net.cpp:477] conv4 <- conv3
I0316 23:04:08.633718 18906 net.cpp:433] conv4 -> conv4
I0316 23:04:08.651199 18906 net.cpp:155] Setting up conv4
I0316 23:04:08.651239 18906 net.cpp:163] Top shape: 32 384 13 13 (2076672)
I0316 23:04:08.651259 18906 layer_factory.hpp:76] Creating layer relu4
I0316 23:04:08.651276 18906 net.cpp:110] Creating Layer relu4
I0316 23:04:08.651288 18906 net.cpp:477] relu4 <- conv4
I0316 23:04:08.651320 18906 net.cpp:419] relu4 -> conv4 (in-place)
I0316 23:04:08.651337 18906 net.cpp:155] Setting up relu4
I0316 23:04:08.651351 18906 net.cpp:163] Top shape: 32 384 13 13 (2076672)
I0316 23:04:08.651363 18906 layer_factory.hpp:76] Creating layer conv5
I0316 23:04:08.651396 18906 net.cpp:110] Creating Layer conv5
I0316 23:04:08.651408 18906 net.cpp:477] conv5 <- conv4
I0316 23:04:08.651423 18906 net.cpp:433] conv5 -> conv5

(process:18906): GConf-WARNING **: Client failed to connect to the D-BUS daemon:
Did not receive a reply. Possible causes include: the remote application did not send a reply, the message bus security policy blocked the reply, the reply timeout expired, or the network connection was broken.
I0316 23:04:08.663321 18906 net.cpp:155] Setting up conv5
I0316 23:04:08.663362 18906 net.cpp:163] Top shape: 32 256 13 13 (1384448)
I0316 23:04:08.663388 18906 layer_factory.hpp:76] Creating layer relu5
I0316 23:04:08.663409 18906 net.cpp:110] Creating Layer relu5
I0316 23:04:08.663420 18906 net.cpp:477] relu5 <- conv5
I0316 23:04:08.663441 18906 net.cpp:419] relu5 -> conv5 (in-place)
I0316 23:04:08.663461 18906 net.cpp:155] Setting up relu5
I0316 23:04:08.663480 18906 net.cpp:163] Top shape: 32 256 13 13 (1384448)
I0316 23:04:08.663494 18906 layer_factory.hpp:76] Creating layer pool5
I0316 23:04:08.663509 18906 net.cpp:110] Creating Layer pool5
I0316 23:04:08.663519 18906 net.cpp:477] pool5 <- conv5
I0316 23:04:08.663534 18906 net.cpp:433] pool5 -> pool5
I0316 23:04:08.663554 18906 net.cpp:155] Setting up pool5
I0316 23:04:08.663568 18906 net.cpp:163] Top shape: 32 256 6 6 (294912)
I0316 23:04:08.663578 18906 layer_factory.hpp:76] Creating layer fc6
I0316 23:04:08.663599 18906 net.cpp:110] Creating Layer fc6
I0316 23:04:08.663607 18906 net.cpp:477] fc6 <- pool5
I0316 23:04:08.663635 18906 net.cpp:433] fc6 -> fc6

(caffe:18906): GConf-WARNING **: Client failed to connect to the D-BUS daemon:
Did not receive a reply. Possible causes include: the remote application did not send a reply, the message bus security policy blocked the reply, the reply timeout expired, or the network connection was broken.
…
I0316 23:04:10.376194 18918 data_transformer.cpp:402] ----------------------------------------
I0316 23:04:10.376221 18918 data_transformer.cpp:403] src width: 227, src height: 227
I0316 23:04:10.376227 18918 data_transformer.cpp:404] dest width: 227, dest height: 227
I0316 23:04:10.376233 18918 data_transformer.cpp:406] * parameter for flipping: 
I0316 23:04:10.376258 18918 data_transformer.cpp:407]   flipping_mode: -1
I0316 23:04:10.376286 18918 data_transformer.cpp:418] * parameter for JPEG compression: 
I0316 23:04:10.376307 18918 data_transformer.cpp:419]   QF: 96
I0316 23:04:10.377089 18906 net.cpp:155] Setting up fc7
I0316 23:04:10.377107 18906 net.cpp:163] Top shape: 32 4096 (131072)
I0316 23:04:10.377126 18906 layer_factory.hpp:76] Creating layer relu7
I0316 23:04:10.377146 18906 net.cpp:110] Creating Layer relu7
I0316 23:04:10.377156 18906 net.cpp:477] relu7 <- fc7
I0316 23:04:10.377171 18906 net.cpp:419] relu7 -> fc7 (in-place)
I0316 23:04:10.377187 18906 net.cpp:155] Setting up relu7
I0316 23:04:10.377198 18906 net.cpp:163] Top shape: 32 4096 (131072)
I0316 23:04:10.377207 18906 layer_factory.hpp:76] Creating layer drop7
I0316 23:04:10.377219 18906 net.cpp:110] Creating Layer drop7
I0316 23:04:10.377230 18906 net.cpp:477] drop7 <- fc7
I0316 23:04:10.377241 18906 net.cpp:419] drop7 -> fc7 (in-place)
I0316 23:04:10.377257 18906 net.cpp:155] Setting up drop7
I0316 23:04:10.377269 18906 net.cpp:163] Top shape: 32 4096 (131072)
I0316 23:04:10.377279 18906 layer_factory.hpp:76] Creating layer latent_layer
I0316 23:04:10.377295 18906 net.cpp:110] Creating Layer latent_layer
I0316 23:04:10.377303 18906 net.cpp:477] latent_layer <- fc7
I0316 23:04:10.377315 18906 net.cpp:433] latent_layer -> latent_layer
I0316 23:04:10.382906 18906 net.cpp:155] Setting up latent_layer
I0316 23:04:10.383005 18906 net.cpp:163] Top shape: 32 48 (1536)
I0316 23:04:10.383044 18906 layer_factory.hpp:76] Creating layer encode_neuron
I0316 23:04:10.383064 18906 net.cpp:110] Creating Layer encode_neuron
I0316 23:04:10.383072 18906 net.cpp:477] encode_neuron <- latent_layer
I0316 23:04:10.383085 18906 net.cpp:433] encode_neuron -> encode_neuron
I0316 23:04:10.383101 18906 net.cpp:155] Setting up encode_neuron
I0316 23:04:10.383110 18906 net.cpp:163] Top shape: 32 48 (1536)
I0316 23:04:10.383116 18906 layer_factory.hpp:76] Creating layer encode_neuron_encode_neuron_0_split
I0316 23:04:10.383127 18906 net.cpp:110] Creating Layer encode_neuron_encode_neuron_0_split
I0316 23:04:10.383134 18906 net.cpp:477] encode_neuron_encode_neuron_0_split <- encode_neuron
I0316 23:04:10.383143 18906 net.cpp:433] encode_neuron_encode_neuron_0_split -> encode_neuron_encode_neuron_0_split_0
I0316 23:04:10.383158 18906 net.cpp:433] encode_neuron_encode_neuron_0_split -> encode_neuron_encode_neuron_0_split_1
I0316 23:04:10.383168 18906 net.cpp:433] encode_neuron_encode_neuron_0_split -> encode_neuron_encode_neuron_0_split_2
I0316 23:04:10.383179 18906 net.cpp:433] encode_neuron_encode_neuron_0_split -> encode_neuron_encode_neuron_0_split_3
I0316 23:04:10.383189 18906 net.cpp:433] encode_neuron_encode_neuron_0_split -> encode_neuron_encode_neuron_0_split_4
I0316 23:04:10.383201 18906 net.cpp:155] Setting up encode_neuron_encode_neuron_0_split
I0316 23:04:10.383210 18906 net.cpp:163] Top shape: 32 48 (1536)
I0316 23:04:10.383219 18906 net.cpp:163] Top shape: 32 48 (1536)
I0316 23:04:10.383225 18906 net.cpp:163] Top shape: 32 48 (1536)
I0316 23:04:10.383232 18906 net.cpp:163] Top shape: 32 48 (1536)
I0316 23:04:10.383239 18906 net.cpp:163] Top shape: 32 48 (1536)
I0316 23:04:10.383246 18906 layer_factory.hpp:76] Creating layer loss_beta
I0316 23:04:10.383257 18906 net.cpp:110] Creating Layer loss_beta
I0316 23:04:10.383263 18906 net.cpp:477] loss_beta <- encode_neuron_encode_neuron_0_split_0
I0316 23:04:10.383271 18906 net.cpp:477] loss_beta <- encode_neuron_encode_neuron_0_split_1
I0316 23:04:10.383280 18906 net.cpp:433] loss_beta -> loss: forcing-binary
…
